{"num_epochs": 100, "batch_size": 64, "hidden_units": 64, "num_layers": 2, "z_dim": 16, "final_loss": 1.6273713727702204, "model_str": "ResNetAutoencoder(\n  (encoder): Sequential(\n    (0): ResidualBlock(\n      (linear1): Linear(in_features=161, out_features=64, bias=True)\n      (linear2): Linear(in_features=64, out_features=64, bias=True)\n      (bn1): BatchNorm1d(64, eps=1e-05, momentum=0.1, affine=True, track_running_stats=True)\n      (bn2): BatchNorm1d(64, eps=1e-05, momentum=0.1, affine=True, track_running_stats=True)\n      (shortcut): Linear(in_features=161, out_features=64, bias=True)\n    )\n    (1): ResidualBlock(\n      (linear1): Linear(in_features=64, out_features=16, bias=True)\n      (linear2): Linear(in_features=16, out_features=16, bias=True)\n      (bn1): BatchNorm1d(16, eps=1e-05, momentum=0.1, affine=True, track_running_stats=True)\n      (bn2): BatchNorm1d(16, eps=1e-05, momentum=0.1, affine=True, track_running_stats=True)\n      (shortcut): Linear(in_features=64, out_features=16, bias=True)\n    )\n  )\n  (decoder): Sequential(\n    (0): ResidualBlock(\n      (linear1): Linear(in_features=16, out_features=64, bias=True)\n      (linear2): Linear(in_features=64, out_features=64, bias=True)\n      (bn1): BatchNorm1d(64, eps=1e-05, momentum=0.1, affine=True, track_running_stats=True)\n      (bn2): BatchNorm1d(64, eps=1e-05, momentum=0.1, affine=True, track_running_stats=True)\n      (shortcut): Linear(in_features=16, out_features=64, bias=True)\n    )\n    (1): ResidualBlock(\n      (linear1): Linear(in_features=64, out_features=161, bias=True)\n      (linear2): Linear(in_features=161, out_features=161, bias=True)\n      (bn1): BatchNorm1d(161, eps=1e-05, momentum=0.1, affine=True, track_running_stats=True)\n      (bn2): BatchNorm1d(161, eps=1e-05, momentum=0.1, affine=True, track_running_stats=True)\n      (shortcut): Linear(in_features=64, out_features=161, bias=True)\n    )\n  )\n)"}