{"num_epochs": 50, "batch_size": 64, "hidden_units": 32, "num_layers": 2, "z_dim": 8, "final_loss": 1.8387057917892553, "model_str": "ResNetAutoencoder(\n  (encoder): Sequential(\n    (0): ResidualBlock(\n      (linear1): Linear(in_features=161, out_features=32, bias=True)\n      (linear2): Linear(in_features=32, out_features=32, bias=True)\n      (bn1): BatchNorm1d(32, eps=1e-05, momentum=0.1, affine=True, track_running_stats=True)\n      (bn2): BatchNorm1d(32, eps=1e-05, momentum=0.1, affine=True, track_running_stats=True)\n      (shortcut): Linear(in_features=161, out_features=32, bias=True)\n    )\n    (1): ResidualBlock(\n      (linear1): Linear(in_features=32, out_features=8, bias=True)\n      (linear2): Linear(in_features=8, out_features=8, bias=True)\n      (bn1): BatchNorm1d(8, eps=1e-05, momentum=0.1, affine=True, track_running_stats=True)\n      (bn2): BatchNorm1d(8, eps=1e-05, momentum=0.1, affine=True, track_running_stats=True)\n      (shortcut): Linear(in_features=32, out_features=8, bias=True)\n    )\n  )\n  (decoder): Sequential(\n    (0): ResidualBlock(\n      (linear1): Linear(in_features=8, out_features=32, bias=True)\n      (linear2): Linear(in_features=32, out_features=32, bias=True)\n      (bn1): BatchNorm1d(32, eps=1e-05, momentum=0.1, affine=True, track_running_stats=True)\n      (bn2): BatchNorm1d(32, eps=1e-05, momentum=0.1, affine=True, track_running_stats=True)\n      (shortcut): Linear(in_features=8, out_features=32, bias=True)\n    )\n    (1): ResidualBlock(\n      (linear1): Linear(in_features=32, out_features=161, bias=True)\n      (linear2): Linear(in_features=161, out_features=161, bias=True)\n      (bn1): BatchNorm1d(161, eps=1e-05, momentum=0.1, affine=True, track_running_stats=True)\n      (bn2): BatchNorm1d(161, eps=1e-05, momentum=0.1, affine=True, track_running_stats=True)\n      (shortcut): Linear(in_features=32, out_features=161, bias=True)\n    )\n  )\n)", "num_params": 51296}